apps/gesturelock/model.lite (tflite, 54768 bytes, 3 tensors)

sequential/y_pred/MatMul i1 [2, 40] scale=0.0031124325 zero_point=0
0.23343244 -0.27389407 0.20853297 0.3641546 0.37660435 -0.23965731 -0.13072217 -0.30813083
0.040461622 0.24588217 -0.32369298 -0.28323135 -0.3548173 0.35792974 -0.06536108 0.19297081
0.37660435 0.18363352 0.15873405 -0.18052109 0.20230812 0.1525092 0.006224865 0.18674596
-0.15562163 0.028011892 0.33614272 0.056023784 0.031124325 0.10271028 -0.3143557 0.28945622
-0.14317189 0.3423676 0.17429623 -0.17429623 -0.31124327 -0.3641546 -0.028011892 0.24276973
0.19297081 0.015562163 -0.05913622 -0.11516 -0.2956811 0.0 -0.34859246 0.1525092
-0.29256865 0.12760973 -0.27389407 -0.17740865 0.018674595 0.25210702 0.09026054 -0.105822705
-0.14317189 -0.28634378 0.05913622 -0.39527893 0.2583319 -0.080923244 0.052911352 0.12138487
0.22098272 -0.36104217 -0.07469838 -0.21475784 0.09959784 0.35170487 0.16807136 0.36726704
0.27078164 0.06536108 0.07469838 -0.2676692 0.105822705 -0.3143557 0.3734919 0.3423676
00000000: 4ba8 4375 79b3 d69d 0d4f 98a5 8e73 eb3e
00000010: 793b 33c6 4131 023c ce09 6c12 0a21 9b5d
00000020: d26e 38c8 9c8b f74e 3e05 eddb a100 9031
00000030: a229 a8c7 0651 1dde d2a4 1381 53e6 1127
00000040: 478c e8bb 2071 3676 5715 18aa 229b 786e

sequential/dense_1/MatMul i1 [40, 50] scale=0.0022975306 zero_point=0
0.13785183 0.2550259 -0.045950614 0.09879382 -0.016082715 0.1952901 -0.25732344 -0.1424469
-0.25962096 -0.09190123 0.09879382 -0.0045950613 -0.048248142 -0.018380245 -0.018380245 0.13095924
-0.07352098 -0.17001727 0.17690986 0.087306164 -0.24813332 0.11717407 0.07581851 -0.1424469
-0.1654222 -0.1424469 0.059735797 0.03216543 0.27570367 -0.013785183 -0.12406666 0.048248142
0.14704196 -0.25732344 0.08960369 -0.087306164 -0.16771974 0.027570367 -0.17690986 -0.022975307
0.16771974 0.09190123 0.18839751 -0.119471595 0.09879382 -0.06433086 0.16771974 0.13555431
0.025272837 -0.2619185 -0.14474443 0.096496284 -0.21367034 0.14474443 -0.12176912 -0.0045950613
0.21367034 -0.15623209 -0.11717407 -0.0827111 0.087306164 -0.2320506 0.225158 -0.09879382
0.078116044 0.0 0.1654222 0.15852961 0.18150492 -0.1654222 0.19069505 -0.0045950613
-0.1654222 -0.10568641 0.09879382 -0.23434813 -0.1493395 -0.039058022 -0.24124072 -0.0114876535
-0.04135555 -0.029867899 -0.14014937 -0.1493395 0.23664565 0.20677775 0.24813332 0.06203333
0.0827111 -0.0068925917 0.21137282 0.059735797 0.225158 -0.23664565 0.04135555 0.20677775
0.087306164 0.018380245 0.009190123 0.16082714 -0.055140734 -0.112579 -0.10109135 -0.050545674
0.17690986 -0.11717407 0.24124072 -0.016082715 -0.08041357 -0.08041357 0.17920738 0.1952901
0.21596788 0.2021827 -0.13325678 -0.23434813 -0.057438266 -0.23664565 0.03676049 -0.09190123
-0.048248142 0.12636419 -0.10568641 0.119471595 0.21137282 -0.24583578 -0.1493395 -0.050545674
-0.17001727 -0.022975307 -0.14014937 0.21137282 -0.22745554 -0.25043085 -0.18839751 -0.25043085
0.2021827 -0.225158 -0.19758764 0.025272837 0.078116044 0.12176912 -0.20448023 -0.103388876
-0.25962096 0.17690986 0.0068925917 0.07122345 -0.12636419 -0.21596788 0.12176912 -0.17001727
-0.06203333 -0.18839751 -0.055140734 0.26421604 0.096496284 -0.020677775 0.08960369 -0.2021827
-0.13555431 -0.1952901 -0.19988516 -0.094198756 -0.11028147 -0.14014937 -0.19299257 -0.094198756
-0.085008636 -0.28259626 0.20907529 0.18609998 -0.10568641 0.013785183 -0.1654222 -0.28259626
-0.029867899 0.20448023 0.09190123 0.19299257 -0.225158 0.20677775 0.22286047 -0.1952901
0.2021827 -0.15623209 0.1723148 0.094198756 -0.11487653 -0.103388876 0.15623209 -0.13325678
-0.09190123 -0.09190123 -0.08041357 0.25962096 -0.13785183 0.009190123 -0.1723148 -0.03216543
-0.07352098 -0.15852961 -0.20448023 -0.050545674 -0.096496284 -0.21367034 -0.050545674 0.12406666
-0.22286047 -0.14474443 -0.13095924 -0.055140734 0.22975306 0.17920738 -0.020677775 -0.18380246
-0.085008636 0.1424469 -0.045950614 0.17461233 -0.10798394 -0.0068925917 -0.26881108 -0.13785183
-0.0022975306 0.03216543 0.22745554 0.0022975306 -0.19758764 0.15623209 -0.23434813 0.078116044
-0.24813332 -0.057438266 -0.13325678 -0.20677775 0.23894319 -0.25732344 -0.009190123 -0.16771974
-0.23894319 -0.06662839 0.1424469 0.0022975306 0.21826541 -0.04135555 0.11028147 0.15623209
0.25043085 -0.04135555 -0.22056293 -0.07352098 -0.25043085 -0.11487653 -0.09190123 -0.2550259
00000000: 3c6f ec2b f955 90c2 8fd8 2bfe ebf8 f839
00000010: e0b6 4d26 9433 21c2 b8c2 1a0e 78fa ca15
00000020: 4090 27da b70c b3f6 4928 52cc 2be4 493b
00000030: 0b8e c12a a33f cbfe 5dbc cddc 269b 62d5
00000040: 2200 4845 4fb8 53fe b8d2 2b9a bfef 97fb
00000050: eef3 c3bf 675a 6c1b 24fd 5c1a 6299 125a
00000060: 2608 0446 e8cf d4ea 4dcd 69f9 dddd 4e55
00000070: 5e58 c69a e799 10d8 eb37 d234 5c95 bfea
00000080: b6f6 c35c 9d93 ae93 589e aa0b 2235 a7d3
00000090: 8f4d 031f c9a2 35b6 e5ae e873 2af7 27a8
000000a0: c5ab a9d7 d0c3 acd7 db85 5b51 d206 b885
000000b0: f359 2854 9e5a 61ab 58bc 4b29 ced3 44c6
000000c0: d8d8 dd71 c404 b5f2 e0bb a7ea d6a3 ea36
000000d0: 9fc1 c7e8 644e f7b0 db3e ec4c d1fd 8bc4
000000e0: ff0e 6301 aa44 9a22 94e7 c6a6 6890 fcb7
000000f0: 98e3 3e01 5fee 3044 6dee a0e0 93ce d891

sequential/dense/MatMul i1 [50, 999] scale=0.00082904345 zero_point=0
-0.0116066085 0.061349217 0.043939304 -0.0024871305 0.007461391 0.015751826 0.054716866 -0.013264695
0.049742606 -0.077101044 0.034819826 -0.035648867 -0.00082904345 -0.06963965 0.019067999 -0.06466539
0.036477912 0.013264695 0.047255475 -0.080417216 -0.0024871305 -0.033161737 0.053887825 -0.02404226
0.018238956 0.06963965 -0.047255475 0.0116066085 0.046426434 -0.009948522 -0.073784865 -0.004974261
0.022384172 -0.0024871305 0.05554591 0.024871303 0.0024871305 0.06715252 -0.0820753 0.019067999
0.039794087 0.034819826 -0.015751826 -0.0630073 0.058862086 0.027358433 0.06383634 0.05803304
0.02404226 -0.052229736 -0.025700347 -0.0016580869 -0.07212678 -0.077101044 -0.057203997 -0.066323474
0.018238956 -0.053887825 -0.0033161738 -0.048913565 -0.049742606 0.047255475 -0.048913565 -0.0058033043
0.038135998 0.038135998 -0.042281214 -0.036477912 -0.05305878 -0.058862086 0.043939304 -0.010777565
-0.0058033043 0.033161737 0.012435651 0.029845564 0.077930085 0.04062313 0.019897044 -0.029845564
-0.03399078 0.028187478 -0.047255475 0.039794087 0.068810605 0.056374956 -0.013264695 0.070468694
0.025700347 -0.025700347 -0.05305878 0.016580869 -0.018238956 -0.004974261 -0.051400695 -0.047255475
-0.03150365 -0.044768345 0.058862086 0.035648867 0.023213217 -0.068810605 -0.038135998 0.0
0.007461391 0.00082904345 0.059691127 0.013264695 0.038965043 -0.066323474 -0.072955824 0.033161737
0.06549443 -0.019897044 -0.0033161738 0.05305878 -0.014922782 -0.034819826 0.025700347 0.072955824
0.0024871305 -0.0058033043 -0.029845564 -0.033161737 -0.02404226 -0.032332696 -0.00082904345 0.035648867
0.027358433 -0.02652939 -0.06549443 0.0016580869 -0.02901652 -0.062178258 0.057203997 -0.035648867
-0.06466539 -0.05305878 0.024871303 0.060520172 0.054716866 -0.013264695 0.0024871305 0.015751826
-0.014922782 -0.068810605 -0.0066323476 -0.06963965 0.013264695 0.0024871305 0.018238956 -0.061349217
0.034819826 0.044768345 -0.0630073 -0.008290434 0.033161737 -0.075442955 -0.066323474 0.02652939
-0.018238956 0.007461391 -0.06466539 0.030674608 0.013264695 -0.05803304 -0.073784865 0.02155513
0.048913565 -0.075442955 -0.03150365 0.018238956 0.068810605 0.061349217 0.013264695 0.062178258
-0.04062313 -0.07212678 -0.013264695 0.030674608 0.068810605 -0.036477912 0.009119478 -0.068810605
-0.057203997 0.027358433 -0.057203997 -0.051400695 0.036477912 0.070468694 0.05554591 -0.06549443
0.070468694 -0.035648867 0.014922782 0.032332696 -0.010777565 -0.04808452 -0.029845564 0.060520172
-0.052229736 -0.06963965 -0.014922782 -0.041452173 0.07212678 -0.035648867 0.009948522 0.024871303
-0.04559739 0.06798156 0.04062313 -0.009948522 -0.041452173 0.049742606 0.06466539 0.06383634
0.007461391 0.059691127 0.0630073 -0.046426434 0.038965043 0.02155513 -0.022384172 0.06466539
0.043939304 0.0066323476 0.073784865 0.030674608 -0.04808452 -0.02901652 0.0058033043 0.013264695
0.028187478 -0.008290434 -0.038965043 0.030674608 -0.02901652 -0.02901652 0.019067999 0.066323474
0.025700347 -0.075442955 -0.027358433 -0.04311026 0.038135998 -0.05057165 0.007461391 0.03399078
-0.037306957 -0.009948522 0.02901652 0.04559739 0.056374956 -0.027358433 0.019897044 0.059691127
00000000: f24a 35fd 0913 42f0 3ca3 2ad5 ffac 17b2
00000010: 2c10 399f fdd8 41e3 1654 c70e 38f4 a7fa
00000020: 1bfd 431e 0351 9d17 302a edb4 4721 4d46
00000030: 1dc1 e1fe a9a3 bbb0 16bf fcc5 c439 c5f9
00000040: 2e2e cdd4 c0b9 35f3 f928 0f24 5e31 18dc
00000050: d722 c730 5344 f055 1fe1 c014 eafa c2c7
00000060: daca 472b 1cad d200 0901 4810 2fb0 a828
00000070: 4fe8 fc40 eed6 1f58 03f9 dcd8 e3d9 ff2b
00000080: 21e0 b102 ddb5 45d5 b2c0 1e49 42f0 0313
00000090: eead f8ac 1003 16b6 2a36 b4f6 28a5 b020
000000a0: ea09 b225 10ba a71a 3ba5 da16 534a 104b
000000b0: cfa9 f025 53d4 0bad bb21 bbc2 2c55 43b1
000000c0: 55d5 1227 f3c6 dc49 c1ac eece 57d5 0c1e
000000d0: c952 31f4 ce3c 4e4d 0948 4cc8 2f1a e54e
000000e0: 3508 5925 c6dd 0710 22f6 d125 dddd 1750
000000f0: 1fa5 dfcc 2ec3 0929 d3f4 2337 44df 1848
